…
8/8 [==============================] - 0s 31ms/step - loss: 0.5768 - accuracy: 0.7305
Epoch 8/10
8/8 [==============================] - 0s 31ms/step - loss: 0.4910 - accuracy: 0.9180
Epoch 9/10
8/8 [==============================] - 0s 30ms/step - loss: 0.3724 - accuracy: 0.9297
Epoch 10/10
8/8 [==============================] - 0s 31ms/step - loss: 0.3608 - accuracy: 0.8828

Model: "sequential_10"
_________________________________________________________________
 Layer (type)                Output Shape              Param #
=================================================================
 embedding_10 (Embedding)    (None, 35, 100)           73900

 lstm_10 (LSTM)              (None, 35, 128)           117248

 attention_with_context (At  (None, 35, 128)           16640
 tentionWithContext)

 addition (Addition)         (None, 128)               0

 dense_10 (Dense)            (None, 2)                 258

=================================================================
Total params: 208046 (812.68 KB)
Trainable params: 208046 (812.68 KB)
Non-trainable params: 0 (0.00 Byte)
_________________________________________________________________
Epoch 1/10
8/8 [==============================] - 1s 14ms/step - loss: 0.6949 - accuracy: 0.5000
Epoch 2/10
8/8 [==============================] - 0s 15ms/step - loss: 0.6937 - accuracy: 0.5000
…
8/8 [==============================] - 0s 19ms/step - loss: 0.6839 - accuracy: 0.6094
Epoch 8/10
8/8 [==============================] - 0s 19ms/step - loss: 0.6763 - accuracy: 0.7852
Epoch 9/10
8/8 [==============================] - 0s 19ms/step - loss: 0.6424 - accuracy: 0.7734
Epoch 10/10
8/8 [==============================] - 0s 19ms/step - loss: 0.5420 - accuracy: 0.7305

Model: "sequential_15"
_________________________________________________________________
 Layer (type)                Output Shape              Param #
=================================================================
 embedding_15 (Embedding)    (None, 35, 100)           73900

 bidirectional_5 (Bidirecti  (None, 35, 256)           234496
 onal)

 attention_with_context_5 (  (None, 35, 256)           66048
 AttentionWithContext)

 addition_5 (Addition)       (None, 256)               0

 dense_15 (Dense)            (None, 2)                 514

=================================================================
Total params: 374958 (1.43 MB)
Trainable params: 374958 (1.43 MB)
Non-trainable params: 0 (0.00 Byte)
_________________________________________________________________
Epoch 1/10
8/8 [==============================] - 2s 32ms/step - loss: 0.6944 - accuracy: 0.5000
Epoch 2/10
8/8 [==============================] - 0s 34ms/step - loss: 0.6923 - accuracy: 0.6250
…
