…
8/8 [==============================] - 0s 31ms/step - loss: 0.5768 - accuracy: 0.7305
Epoch 8/10
8/8 [==============================] - 0s 31ms/step - loss: 0.4910 - accuracy: 0.9180
Epoch 9/10
8/8 [==============================] - 0s 30ms/step - loss: 0.3724 - accuracy: 0.9297
Epoch 10/10
8/8 [==============================] - 0s 31ms/step - loss: 0.3608 - accuracy: 0.8828

Model: "sequential_10"
_________________________________________________________________
 Layer (type)                Output Shape              Param #
=================================================================
 embedding_10 (Embedding)    (None, 35, 100)           73900

 lstm_10 (LSTM)              (None, 35, 128)           117248

 attention_with_context (At  (None, 35, 128)           16640
 tentionWithContext)

 addition (Addition)         (None, 128)               0

 dense_10 (Dense)            (None, 2)                 258

=================================================================
Total params: 208046 (812.68 KB)
Trainable params: 208046 (812.68 KB)
Non-trainable params: 0 (0.00 Byte)
_________________________________________________________________
Epoch 1/10
8/8 [==============================] - 1s 14ms/step - loss: 0.6949 - accuracy: 0.5000
Epoch 2/10
8/8 [==============================] - 0s 15ms/step - loss: 0.6937 - accuracy: 0.5000
…
8/8 [==============================] - 0s 19ms/step - loss: 0.6839 - accuracy: 0.6094
Epoch 8/10
8/8 [==============================] - 0s 19ms/step - loss: 0.6763 - accuracy: 0.7852
Epoch 9/10
8/8 [==============================] - 0s 19ms/step - loss: 0.6424 - accuracy: 0.7734
Epoch 10/10
8/8 [==============================] - 0s 19ms/step - loss: 0.5420 - accuracy: 0.7305

Model: "sequential_15"
_________________________________________________________________
 Layer (type)                Output Shape              Param #
=================================================================
 embedding_15 (Embedding)    (None, 35, 100)           73900

 bidirectional_5 (Bidirecti  (None, 35, 256)           234496
 onal)

 attention_with_context_5 (  (None, 35, 256)           66048
 AttentionWithContext)

 addition_5 (Addition)       (None, 256)               0

 dense_15 (Dense)            (None, 2)                 514

=================================================================
Total params: 374958 (1.43 MB)
Trainable params: 374958 (1.43 MB)
Non-trainable params: 0 (0.00 Byte)
_________________________________________________________________
Epoch 1/10
8/8 [==============================] - 2s 32ms/step - loss: 0.6944 - accuracy: 0.5000
Epoch 2/10
8/8 [==============================] - 0s 34ms/step - loss: 0.6923 - accuracy: 0.6250
…
To enable the following instructions: SSE SSE2 SSE3 SSE4.1 SSE4.2 AVX2 AVX_VNNI FMA, in other operations, rebuild TensorFlow with the appropriate compiler flags.
WARNING:tensorflow:From C:\Users\23050\AppData\Roaming\Python\Python311\site-packages\keras\src\backend.py:873: The name tf.get_default_graph is deprecated. Please use tf.compat.v1.get_default_graph instead.

Model: "sequential"
_________________________________________________________________
 Layer (type)                Output Shape              Param #
=================================================================
 embedding (Embedding)       (None, 35, 100)           869900

 lstm (LSTM)                 (None, 35, 128)           117248

 lstm_1 (LSTM)               (None, 35, 128)           131584

 lstm_2 (LSTM)               (None, 128)               131584

 dense (Dense)               (None, 2)                 258

=================================================================
Total params: 1250574 (4.77 MB)
Trainable params: 1250574 (4.77 MB)
Non-trainable params: 0 (0.00 Byte)
_________________________________________________________________
Epoch 1/10
WARNING:tensorflow:From C:\Users\23050\AppData\Roaming\Python\Python311\site-packages\keras\src\utils\tf_utils.py:492: The name tf.ragged.RaggedTensorValue is deprecated. Please use tf.compat.v1.ragged.RaggedTensorValue instead.
…
140/140 [==============================] - 4s 31ms/step - loss: 0.0016 - accuracy: 0.9998
Epoch 9/10
140/140 [==============================] - 4s 31ms/step - loss: 6.2294e-04 - accuracy: 0.9998
Epoch 10/10
140/140 [==============================] - 4s 31ms/step - loss: 4.2798e-04 - accuracy: 0.9998
Model (Attention=False, Bidirectional=False) - Accuracy: 98.47%
Model: "sequential_5"
_________________________________________________________________
 Layer (type)                Output Shape              Param #
=================================================================
 embedding_5 (Embedding)     (None, 35, 100)           869900

 bidirectional (Bidirection  (None, 35, 256)           234496
 al)

 bidirectional_1 (Bidirecti  (None, 35, 256)           394240
 onal)

 bidirectional_2 (Bidirecti  (None, 256)               394240
 onal)

 dense_5 (Dense)             (None, 2)                 514

=================================================================
Total params: 1893390 (7.22 MB)
Trainable params: 1893390 (7.22 MB)
Non-trainable params: 0 (0.00 Byte)
_________________________________________________________________
Epoch 1/10
140/140 [==============================] - 11s 41ms/step - loss: 0.1300 - accuracy: 0.9533
Epoch 2/10
140/140 [==============================] - 6s 40ms/step - loss: 0.0189 - accuracy: 0.9951
…
C:\Users\23050\AppData\Roaming\Python\Python311\site-packages\keras\src\initializers\initializers.py:120: UserWarning: The initializer GlorotUniform is unseeded and being called multiple times, which will return identical values each time (even if the initializer is unseeded). Please update your code to provide a seed to the initializer, or avoid using the same initializer instance more than once.
  warnings.warn(
Model: "sequential_10"
_________________________________________________________________
 Layer (type)                Output Shape              Param #
=================================================================
 embedding_10 (Embedding)    (None, 35, 100)           869900

 lstm_30 (LSTM)              (None, 35, 128)           117248

 lstm_31 (LSTM)              (None, 35, 128)           131584

 lstm_32 (LSTM)              (None, 35, 128)           131584

 attention_with_context (At  (None, 35, 128)           16640
 tentionWithContext)

 addition (Addition)         (None, 128)               0

 dense_10 (Dense)            (None, 2)                 258

=================================================================
Total params: 1267214 (4.83 MB)
Trainable params: 1267214 (4.83 MB)
Non-trainable params: 0 (0.00 Byte)
_________________________________________________________________
Epoch 1/10
140/140 [==============================] - 8s 34ms/step - loss: 0.2570 - accuracy: 0.9044
Epoch 2/10
140/140 [==============================] - 5s 33ms/step - loss: 0.0426 - accuracy: 0.9883
…
C:\Users\23050\AppData\Roaming\Python\Python311\site-packages\keras\src\initializers\initializers.py:120: UserWarning: The initializer GlorotUniform is unseeded and being called multiple times, which will return identical values each time (even if the initializer is unseeded). Please update your code to provide a seed to the initializer, or avoid using the same initializer instance more than once.
  warnings.warn(
Model: "sequential_15"
_________________________________________________________________
 Layer (type)                Output Shape              Param #
=================================================================
 embedding_15 (Embedding)    (None, 35, 100)           869900

 bidirectional_15 (Bidirect  (None, 35, 256)           234496
 ional)

 bidirectional_16 (Bidirect  (None, 35, 256)           394240
 ional)

 bidirectional_17 (Bidirect  (None, 35, 256)           394240
 ional)

 attention_with_context_5 (  (None, 35, 256)           66048
 AttentionWithContext)

 addition_5 (Addition)       (None, 256)               0

 dense_15 (Dense)            (None, 2)                 514

=================================================================
Total params: 1959438 (7.47 MB)
Trainable params: 1959438 (7.47 MB)
Non-trainable params: 0 (0.00 Byte)
_________________________________________________________________
Epoch 1/10
140/140 [==============================] - 12s 47ms/step - loss: 0.1428 - accuracy: 0.9502
Epoch 2/10
140/140 [==============================] - 7s 48ms/step - loss: 0.0219 - accuracy: 0.9937
…
